…
46660294862,"user_tz":-540,"elapsed":24,"user":{"displayName":"국희근","photoUrl":"https://lh3.googleusercontent.com/a-/AOh14GhujY5y9_di6RJ58HsrvzhWSyhCBKurQUgePJKJ=s64","userId":"16664061570172053806"}},"outputId":"088c5324-889b-46f3-de48-a3e32fb34e1e"},"execution_count":null,"outputs":[{"output_type":"stream","name":"stdout","text":["Model: \"sequential\"\n","_________________________________________________________________\n"," Layer (type)                Output Shape              Param #   \n","=================================================================\n"," conv2d_1 (Conv2D)           (None, 28, 28, 32)        320       \n","                                                                 \n"," max_pooling2d_1 (MaxPooling  (None, 14, 14, 32)       0         \n"," 2D)                                                             \n","                                                                 \n"," conv2d_2 (Conv2D)           (None, 14, 14, 64)        18496     \n","                                                                 \n"," max_pooling2d_2 (MaxPooling  (None, 7, 7, 64)         0         \n"," 2D)                                                             \n","                                                                 \n"," flatten (Flatten)           (None, 3136)              0         \n","                                                                 \n"," dense (Dense)               (None, 100)               313700    \n","                                                                 \n"," dropout (Dropout)           (None, 100)               0         \n","                                                                 \n"," dense_1 (Dense)             (None, 10)                1010      \n","                                                                 \n","=================================================================\n","Total params: 333,526\n","Trainable params: 333,526\n","Non-trainable params: 0\n","_________________________________________________________________\n"]}]},{"cell_type":"code","source":["# 그림으로 모델 요약\n","keras.utils.plot_model(\n","    model,      
…
